examples/example_02/results_example_02/model.pth (torch, 90280 bytes, 8 tensors)

conv1.weight f4 [10, 1, 5, 5]
000000 10 a4 d6 bd 66 54 78 3e 33 29 f2 3d 39 da 75 3e
       -0.10480511 0.24250945 0.118242644 0.24009027
000010 31 b7 46 3e 4b 7f 57 3d 33 cc 20 3e e5 a4 04 3e
       0.1940582 0.05261163 0.15702896 0.12953527
000020 e6 ad 2d 3e 0a 64 4b 3d f4 61 8e bd 6a 8c 73 bd
       0.16960868 0.04965595 -0.06952277 -0.05946008
000030 71 db 88 bc 22 cd 80 bd 20 71 20 3e ed 61 4e bd
       -0.0167062 -0.06289126 0.15668154 -0.050386358
000040 d2 a1 42 be aa 34 8b be aa 98 4d be b6 6c 39 be
       -0.19007042 -0.27188617 -0.20077768 -0.18107876
000050 8f 97 1b be ce 1e e3 bd 1a a2 7d bd 36 bd 81 bd
       -0.15194534 -0.1108986 -0.06192217 -0.06334917
000060 f4 94 86 be 2c a5 92 3e 24 b1 a0 3e e9 72 c5 3e
       -0.26285517 0.2864164 0.31385148 0.38564232
000070 9a 93 83 3e a1 2d df bd 57 ec da bd 74 09 f4 3c
       0.2569855 -0.10897375 -0.106896095 0.029789664
000080 0f 7c b3 3e 96 f0 5b 3e 2d 6f 91 3e b2 ad 3b be
       0.35055587 0.21478495 0.28405133 -0.18327978
000090 e6 c8 a5 3d 9a 8e a2 bd f5 ae 75 3e 48 a4 2a 3e
       0.08094959 -0.07937355 0.23992522 0.16664231
0000a0 ae 51 9f be cc a2 c3 bd 96 ef 61 be 99 4f 6d bd
       -0.31117004 -0.095525354 -0.22064051 -0.05793724
0000b0 8e 2e 44 bb 00 d5 77 be 08 be be be e3 73 85 be
       -0.0029934975 -0.24202347 -0.37254357 -0.26064977
0000c0 bd f0 90 bd ca 8b 86 bd 84 e9 a6 3e c4 7a bb 3e
       -0.07077167 -0.065696314 0.32600033 0.366171
0000d0 51 d3 43 3e 2e 7d 02 bd ae 1b 2d 3e b6 c7 95 3d
       0.1912358 -0.031857662 0.1690509 0.073134825
0000e0 14 ae 04 bd 1f a1 92 3e 65 d9 7b 3e 2d 9b 73 3e
       -0.032392576 0.2863855 0.24594648 0.23789664
0000f0 77 14 34 be ee 41 86 bc 87 65 b2 3d 98 5e d4 3d
       -0.17585932 -0.01638886 0.08710771 0.10369605
000100 80 21 19 be 2d 8a 30 be 7a 16 12 3e b6 3a cb 3c
       -0.14954185 -0.1724021 0.14266387 0.024808269
000110 28 ef f6 3d 5d 60 35 bd bf b3 ae 3c 6e 18 8b 3d
       0.12057334 -0.044281352 0.021325944 0.06791769
000120 db f7 dd 3d 64 65 97 3d 70 cb 8c be b1 c3 10 3e
       0.1083829 0.073923856 -0.2749896 0.1413715
000130 14 84 03 be 55 c8 32 be 12 31 21 bd da 2e 76 bd
       -0.12843353 -0.17459233 -0.039353438 -0.060103275
000140 2b ae 35 3e e1 0f a7 bd e8 12 4c be ed da f1 3d
       0.17742221 -0.081573255 -0.19929087 0.11809335
000150 f8 ff 01 bd 46 29 3c 3e ba 7c 08 3e db ae 00 be
       -0.03173825 0.1837512 0.1332883 -0.12566702
000160 b4 26 bc 3d 17 5b e1 3d 61 9d 8e bd ad af 13 bb
       0.091870695 0.11003702 -0.069636114 -0.002253513
000170 ac 28 23 3e e2 3a 1f 3e 55 fc 31 3c b3 77 e1 3c
       0.15933484 0.15549806 0.010863383 0.027522897
000180 06 9c 98 3e 57 a3 7d 3d 9b 4c 69 3e f9 91 41 3e
       0.29806536 0.06192335 0.22783129 0.1890334
000190 d6 84 11 be 79 dd 1a be 97 bd 84 3e 2d 4c 12 3e
       -0.14210829 -0.15123548 0.25925896 0.14286871
0001a0 62 49 5e 3e 18 67 dc 3d 2e a2 42 3e e7 74 b5 3e
       0.21707681 0.10761851 0.19007179 0.35440752
0001b0 ed b8 c7 3e a5 22 38 bd ba 27 ba 3d 31 3f 56 3e
       0.39008275 -0.044954915 0.090896085 0.20922543
0001c0 88 d6 6c 3e c2 15 65 3e 92 cf aa bd 90 ce 25 be
       0.23128712 0.22371581 -0.08340372 -0.16192079
0001d0 48 6d 31 be 4e d3 1b 3b 0e c0 85 3e 55 97 2d bd
       -0.17326844 0.002377707 0.2612309 -0.04238065
0001e0 c3 a5 bd bc 48 b2 62 be fb ad 65 be 18 44 3c bb
       -0.02315033 -0.22138321 -0.2242965 -0.002872711
0001f0 b2 de 4c 3e e0 b7 8d 3e 68 fe 88 3a cd e7 2a 3e
       0.20006827 0.27679348 0.0010451796 0.16689987
000200 bb 46 7b 3e 6a 4d ee 3d ba 6d 47 3e 3c 17 80 3e
       0.245387 0.11635859 0.19475451 0.25017726
000210 23 81 61 3e ee 10 bb 3d 25 5d 22 be 6f 84 41 be
       0.22021918 0.091340885 -0.15855844 -0.18898176
000220 63 79 e1 bd f7 f2 e9 bb 27 cf 96 bd 1d fc fd 3d
       -0.11009481 -0.0071395594 -0.0736373 0.124016024
000230 96 ad 2c 3c 95 c2 a6 bd b1 bc ff 3d ac 6b 3a 3e
       0.010539433 -0.08142582 0.12487162 0.18205136
000240 7a 76 8f 3e 1f d8 dd 3d c0 c0 75 bd 07 92 84 3e
       0.28020078 0.108322375 -0.059998274 0.2589266
000250 a9 e9 99 3d 5e 0f b1 3d ae 63 9d be 2c 48 86 be
       0.0751527 0.08645509 -0.30740112 -0.26226938
000260 47 fa 21 be 99 a5 77 3d a1 90 af 3e 6e 8f 92 be
       -0.1581813 0.06046066 0.3429003 -0.28625053
000270 ab e5 81 be 2e 6b e0 3d 7f 30 8c 3e 7e f1 ac 3e
       -0.25370535 0.10957943 0.2738075 0.33777994
000280 17 4a a0 be 8a f8 d6 bc 7d 4f a1 3d 63 79 8d 3e
       -0.31306526 -0.02624156 0.07876489 0.27631673
000290 0f aa 85 3d b3 a6 71 be e4 c8 da bc 95 0a 9e 3e
       0.06526577 -0.23598747 -0.02670712 0.30867448
0002a0 04 67 a9 3e 12 4b 47 3e f2 76 3a 3e 21 48 92 3e
       0.33086407 0.19462231 0.18209437 0.28570655
0002b0 d1 88 93 3e e5 8a 0c 3e 3a 0d f3 bd e0 c9 de 3d
       0.2881532 0.13724859 -0.11867757 0.10878348
0002c0 5a 41 dc bd 95 69 9d bd 4e 3c 83 be d0 4b 23 be
       -0.10754652 -0.07686154 -0.25631946 -0.15946889
0002d0 21 01 0c be 15 a2 db 3d 33 03 86 be c4 1b 8e be
       -0.13672306 0.10724274 -0.26174316 -0.27755558
0002e0 b5 b6 1d be 21 8d a0 bd 4a 69 7f 3d ec 9e 8d bd
       -0.15401728 -0.07839418 0.06235627 -0.069150776
0002f0 58 98 dc bd 52 2d 97 3b 37 bb 53 3e 24 06 80 bd
       -0.10771245 0.004613557 0.20676886 -0.06251171
000300 58 47 83 3e 9d 9d 9f 3e 83 60 ad 3e 16 e1 43 bd
       0.25640368 0.31174937 0.33862695 -0.04782208
000310 b7 fd 52 3e 05 b1 84 3d 67 f7 af 3e 30 85 66 3c
       0.20604597 0.06479076 0.3436844 0.01406984
000320 58 12 6e 3e 89 8b 14 3e 16 94 79 3c db d5 02 be
       0.23249185 0.14506353 0.01523306 -0.12776892
000330 c3 21 0e be 32 cf 71 3e f7 74 49 3e 0a 0c 81 3d
       -0.13880067 0.23614195 0.19673525 0.063011244
000340 8a e8 b3 be d0 32 28 bd b9 5f b0 3e 72 e1 ae 3e
       -0.3513835 -0.041064084 0.3444803 0.34156376
000350 09 6e 0b 3e 7b 29 97 be c1 68 60 be 3a 24 aa 3e
       0.13616194 -0.29523835 -0.2191496 0.33230764
000360 4d 6f ce 3b 73 2b 64 3e d4 5f 6a be 44 5b 5f be
       0.006299889 0.222822 -0.22888118 -0.21812159
000370 c7 b4 5e 3e 50 dd ae bc 76 11 97 bb 9d a1 ed 3d
       0.21748649 -0.021345764 -0.004610236 0.11603091
000380 55 1d 05 3e 92 38 3a 3e 05 4c 84 3c d1 d1 15 bd
       0.1299947 0.18185642 0.01614953 -0.03657705
000390 70 43 a6 3e 74 86 9a 3d 09 e9 ea bd 8b 52 8c 3d
       0.32473326 0.07545176 -0.11470229 0.06851681
0003a0 0b 4c d3 bd 9c 5d 1a 3e 87 57 44 3e 95 ec 67 be
       -0.103172384 0.15074772 0.19174014 -0.22648843
0003b0 b9 75 78 be cf 3a e4 bd e0 f0 14 bd c9 65 24 bd
       -0.24263658 -0.11144029 -0.03636253 -0.040136132
0003c0 35 93 1f be d3 de fd bd ea ab 9e be 54 8d 8b be
       -0.15583499 -0.12396016 -0.30990535 -0.27256262
0003d0 b3 83 74 be f5 28 30 3e 7b ad 0b 3e 16 05 c7 bd
       -0.23878364 0.17203124 0.13640396 -0.09717767
0003e0 ba 98 91 bd 61 87 f0 bc
       -0.071092084 -0.029361429

conv1.bias f4 [10]
000000 f2 41 1a 3d 16 5d 08 bd 5d fe 45 3e 96 90 11 3e
       0.037660547 -0.0332919 0.19335313 0.14215311
000010 67 2b e2 3d b1 68 c9 3c 52 9b 28 3e 66 e4 3d 3e
       0.110434346 0.024586054 0.164655 0.18544158
000020 56 96 ba bd 57 9c 24 3e
       -0.091107056 0.16075264

conv2.weight f4 [20, 10, 5, 5]
000000 1d 52 b1 3c 21 d6 14 bd 2d 84 4c 3d 02 2a 97 bc
       0.0216456 -0.03633702 0.04993074 -0.018452648
000010 bc 49 67 3d a5 78 18 bd be 52 4e ba f5 8d 07 bc
       0.056466803 -0.03722443 -0.0007870606 -0.008273591
000020 1a 4f 2b bc 48 91 77 3c de e1 ef bc ec ce 78 bd
       -0.010455871 0.015110321 -0.029282507 -0.06074421
000030 55 d5 bd bd 70 78 81 bc 60 cb 0b bd c3 5d c3 bc
       -0.092692055 -0.0158045 -0.0341295 -0.02384842
000040 87 0c 3c bd fa 7a 73 bc b1 4a 2e 3c 08 29 c6 bc
       -0.045910385 -0.014860863 0.010637925 -0.024189487
000050 bc cf 6e bd 0a 5a 90 bd dd d6 a5 bd bf c8 9f 3c
       -0.05830358 -0.070484236 -0.080976225 0.019504903
000060 bd 78 38 bd b4 a0 4d 3d 3d 90 3c 3c 25 25 78 bc
       -0.04503702 0.050202087 0.011508998 -0.015145575
000070 13 0c c7 3d 5c 4d a7 3d e9 08 40 3c 48 8f 9f bd
       0.097191 0.08169052 0.011720874 -0.077910006
000080 a6 73 cd bd dc 17 87 bd 4c 0f c2 bd 01 9b 74 bd
       -0.10031824 -0.06596348 -0.09475574 -0.059718136
000090 58 eb 91 bd ae 55 c0 bd 46 1f 69 bd 6d 76 94 bd
       -0.071249664 -0.09391342 -0.05691459 -0.072491504
0000a0 d8 ce a2 bd 90 60 d4 bd 05 9d e0 bd a0 af 8b bc
       -0.079496086 -0.1036998 -0.10967449 -0.017051518
0000b0 ee 8c bf bd 12 a6 3e bd 9f 14 c4 bd b8 4d 73 bd
       -0.09353052 -0.046545096 -0.09574246 -0.05940029
0000c0 48 98 70 bd 02 b6 86 bd 2a e6 b7 3d a3 3d 17 bd
       -0.058738977 -0.06577684 0.08979447 -0.036924016
0000d0 ef 20 0f bc a1 a0 63 3d c7 03 98 3d cd 9e 1a 3d
       -0.008735879 0.05557311 0.074225955 0.0377491
0000e0 70 55 5d bd dd 26 5c bd 04 c7 a3 bc 62 00 fc 39
       -0.054036558 -0.053748 -0.019992359 0.0004806547
0000f0 90 eb c3 3c 1d 82 a1 bd bc ec 12 bd bc 5e 8b 3d
       0.023916036 -0.07886145 -0.0358703 0.068051785
000100 41 0d d4 bc 28 bc 25 bd 52 23 89 bb cf 88 d0 3c
       -0.025885226 -0.040462643 -0.0041851187 0.02545586
000110 de 1f 9b 3d 57 f3 da bd cf 63 0f bd a5 4d 9a bd
       0.075744376 -0.10690945 -0.035007294 -0.07534341
000120 98 63 55 bd 80 9b 3a bd d2 15 16 bd 76 88 0a 3b
       -0.052096933 -0.045558453 -0.036641903 0.0021138466
000130 29 96 5b bd 03 3d ae bd 5f 4f 96 bd 36 8f 94 3d
       -0.05361 -0.08507731 -0.073393576 0.07253878
000140 59 d4 c9 bc 9a 02 20 bd 79 7a b1 bc a2 9f 87 bb
       -0.024637388 -0.03906498 -0.021664845 -0.0041389028
000150 de 39 50 bd 72 45 6f bd e2 0e f3 3c 9f e2 04 3d
       -0.050836436 -0.058415838 0.029670183 0.032442685
000160 54 9c 34 bb 9b 4b b3 bd fd 06 04 3c 28 ff 04 3d
       -0.0027559 -0.08754655 0.008058307 0.0324699
000170 6a 04 92 3d 32 36 ae 3b e7 19 ab bb 56 15 bb bb
       0.07129748 0.005316519 -0.0052215937 -0.0057093306
000180 80 a4 4d bd ad c5 a8 bd df 3b d4 3a 08 8a 22 bc
       -0.050205708 -0.08240829 0.0016192159 -0.0099206045
000190 24 5c 41 3d 7a bc 21 bc 3d 68 3d bd f7 b4 0f bd
       0.047207013 -0.0098715965 -0.046241987 -0.03508469
0001a0 a8 df 8d bc 2f 21 ab bc eb a3 ef bd 8e 8d 75 bd
       -0.017318562 -0.020889847 -0.11701187 -0.05994945
0001b0 d3 ce 9a bd b9 f4 e0 bc 63 b8 6c bb dc e7 9a bd
       -0.0755898 -0.027460443 -0.0036120645 -0.07563755
0001c0 69 67 74 bd 4e 41 97 3d 70 f5 6f 3d e6 bf 69 bd
       -0.059668932 0.07385503 0.058583677 -0.057067774
0001d0 99 ab a1 bd 6b 99 2e bd bb 6d d2 3d 31 e9 b0 bd
       -0.07894058 -0.04262678 0.10274836 -0.08638228
0001e0 54 d1 01 be 36 bd a0 bc 8c bb 15 3d 32 3b 5e 3d
       -0.12677509 -0.019621473 0.03655581 0.05425567
0001f0 11 15 bd bd f1 46 f7 bb 81 1b cf bb 43 36 22 3d
       -0.09232534 -0.0075462987 -0.0063204174 0.03960253
000200 ef 91 ee 3c 07 94 2b 3c 07 f4 d5 3c 57 8e 6d bd
       0.029122321 0.010472304 0.026117338 -0.057997074
000210 70 11 a1 bb 89 57 ca bc 63 09 05 3d b2 ec 83 bc
       -0.004915409 -0.024699943 0.032479655 -0.016104076
000220 65 1d dd bd e9 41 3f 3a 78 80 8b bc 7e 96 a8 bd
       -0.10796622 0.0007295893 -0.017029032 -0.08231829
000230 62 0e 91 bd 0f 1b fd bd d0 43 7f bd 38 e4 08 bd
       -0.070828214 -0.12358677 -0.06232053 -0.03342077
000240 04 af 87 bc 36 82 6e bd 63 eb 89 bd ef d8 c1 3c
       -0.016562946 -0.058229648 -0.067343496 0.023663012
000250 4b 1a 33 3d 36 c2 b1 bd ba a9 20 3d 6a 89 15 3d
       0.043726247 -0.08679621 0.039224364 0.036508
000260 d8 ed 86 bd 59 8d 0e bc 1d d5 66 bd d2 fe 8c 3c
       -0.06588334 -0.008700692 -0.056355584 0.017211352
000270 fc 21 9d bd ee 02 36 3d d9 e6 c0 3d ef d5 3a 3e
       -0.07672498 0.044436388 0.09419031 0.18245672
000280 38 f0 c6 3c d0 15 02 3d ec c9 47 3d 0f dc e9 3d
       0.024284467 0.031759083 0.048776552 0.11418926
000290 e5 77 a5 3d 6b 4a df bc e5 60 fb ba 14 91 91 3d
       0.08079509 -0.027257165 -0.0019178657 0.071077496
0002a0 f7 34 d4 3d 24 3f 97 bc 25 d3 04 3c e5 df 94 bc
       0.10361665 -0.018462725 0.008106981 -0.018173167
0002b0 83 ed bb 3d 36 08 cd 3a 10 07 ae bd c6 d4 38 3d
       0.09176161 0.0015642706 -0.08497441 0.04512479
0002c0 2e 9e aa bd ac 7e 83 3c 37 8f b2 bd b8 70 0c 3d
       -0.08330952 0.016051613 -0.08718722 0.034287184
0002d0 33 29 1b 3c cd ba d4 3c 89 d6 88 36 e0 73 cb 3d
       0.009470272 0.02596798 4.078091e-06 0.09934211
0002e0 be 84 a6 bc 44 a2 8a bd 18 f7 ac 3c be a5 74 3d
       -0.020326968 -0.06769231 0.021113917 0.059728377
0002f0 4b 6b 89 3d e3 92 99 bd 92 93 f1 3c cb 7e 9c 3c
       0.06709918 -0.074987195 0.029489312 0.019103428
000300 b5 0c 32 bd 4a 53 ba bd d1 03 7a 3c 18 24 25 bd
       -0.04346915 -0.090979174 0.015259699 -0.040317625
000310 58 56 b7 bb cc ca 05 be 9f eb 9e bc b2 ca 13 3d
       -0.00559501 -0.13065642 -0.019399462 0.036081977
000320 31 00 ef 3c cc be 88 3d c9 9e 76 bd 07 5f 0e bd
       0.029174896 0.066770166 -0.060210023 -0.034758594
000330 58 bc 81 bb 16 75 1f bc e8 08 39 3c 6d 44 a6 bd
       -0.00395922 -0.009732505 0.011293627 -0.0811852
000340 3b 34 be 39 db f9 61 3d a5 a0 e9 3d 8d 33 45 3d
       0.0003627854 0.05516992 0.11407594 0.048144866
000350 0d f8 0b be c3 21 0c 3d df 28 a7 3d ef 73 95 3c
       -0.13668843 0.034211885 0.081620924 0.018243758
000360 c3 31 e0 b9 47 a2 7d bd 9f 17 b7 3d 74 1d 07 3e
       -0.00042761685 -0.061922338 0.08940052 0.13194829
000370 ba bd e6 3d 1d 6f 46 bd fe 21 14 bd 26 fb 11 3e
       0.11266656 -0.04844581 -0.03616523 0.14255962
000380 b6 96 e0 3d 84 a5 84 3d 94 81 48 3d d2 00 97 3b
       0.10966246 0.06476882 0.0489517 0.004608252
000390 11 07 90 3d 87 fa 22 bd bd 93 dd 3c 42 29 c3 3c
       0.07032598 -0.039789703 0.027047986 0.023823384
0003a0 ee a8 ac 3c 45 1b 29 bd ee 2a a4 bd 92 0a 92 3c
       0.021076646 -0.041285772 -0.08016001 0.017827306
0003b0 78 c1 8f bd bf 68 a6 bd 56 79 b7 bd 91 92 6d bd
       -0.07019323 -0.081254475 -0.0895869 -0.058001105
0003c0 23 1e e7 bc 4e 84 5b bd 58 4d 83 bd 50 6a d5 bd
       -0.028212612 -0.053592972 -0.064112365 -0.10420668
0003d0 41 f6 b2 3c df ce 0f bd 25 8e 6d bd c2 0a 69 3b
       0.021845939 -0.035109397 -0.057996888 0.003555939
0003e0 6c 13 46 bd 65 12 35 3d 94 64 3f bc f7 22 c3 bd
       -0.048358366 0.044206996 -0.011681695 -0.095281534
0003f0 80 15 af bd fc b1 4a bd 62 23 c2 bc 14 89 8d bd
       -0.08549023 -0.049486145 -0.023698512 -0.06910911

conv2.bias f4 [20]
000000 5f 28 e6 3c b9 61 55 bd fa ab 7b bc fe 47 29 bd
       0.028095422 -0.05209515 -0.015360827 -0.041328423
000010 36 6d 4d bd b8 a7 91 bc 99 ff b1 3c 3f 30 0a bd
       -0.05015298 -0.01778017 0.021728324 -0.033737417
000020 98 db 84 bd 40 d6 27 3d 67 8d 0c bd 6a 97 9a bd
       -0.06487197 0.04097581 -0.03431454 -0.07548411
000030 24 1a f9 bc 1d 16 19 bc 0b de 68 bd 40 4e 6c bb
       -0.030407973 -0.009343651 -0.05685238 -0.0036057383
000040 bb c9 1c bd ac 28 c7 bc d7 73 8a 3c 6f 31 2a 3c
       -0.038278323 -0.024311386 0.01690094 0.010387762

fc1.weight f4 [50, 320]
000000 59 f2 2c 3c d2 17 eb bc 1e d9 cf 3d 35 cd 71 3d
       0.010555827 -0.028697882 0.10148834 0.05903359
000010 94 62 39 bd 5f 80 02 3d 83 fe a0 3b 8f 86 9f 3b
       -0.045260027 0.031860705 0.0049131527 0.0048683356
000020 42 dd 46 bd aa da 93 bc 31 a1 8e bc 0e b3 e3 bc
       -0.04855085 -0.018048603 -0.017410846 -0.02779534
000030 d8 b4 b9 3b ef f5 bd 3d af cc 21 3d 5b a3 51 3d
       0.00566731 0.09275424 0.039501842 0.05118118
000040 0e 38 3e bc 6c 19 33 bd 37 3e 1e 3d 3e d8 c5 3c
       -0.011610044 -0.043725416 0.03863355 0.024150964
000050 b3 b9 66 3c 5f 2f f9 bc 05 3a 96 3d 12 b2 a6 3d
       0.01408236 -0.030418096 0.07335285 0.08139433
000060 bb 57 de 3b a0 b7 0e 3b cc 1b 8a 3c 15 a4 63 3d
       0.0067853606 0.002177693 0.016858958 0.055576403
000070 c6 24 df bd ff 77 4e bd fd 20 16 3c 4a 40 66 bc
       -0.10895686 -0.050407406 0.009163138 -0.014053414
000080 27 03 0c 3d ed c1 9b 3c b9 aa 38 bc ff 4f 13 3d
       0.034182694 0.01901337 -0.011271172 0.035964962
000090 56 54 ec 3c e3 8c ac 3c bd 9c 30 bd 99 90 31 bd
       0.028848808 0.021063274 -0.043118227 -0.04335079
0000a0 d1 6f 2f bd 2b ff 2e bd d0 34 77 3d 6b f0 c8 bc
       -0.042831246 -0.042723816 0.0603531 -0.024528703
0000b0 b2 44 31 bd 46 8d 2f 3d f3 94 86 3d 73 0a a9 3c
       -0.043278404 0.04285934 0.065713786 0.020634865
0000c0 1d 6a f3 bc 13 ca 1d 3d 0e 5c ef bc 13 a7 bd 3c
       -0.029713685 0.03852279 -0.0292187 0.023150956
0000d0 d2 69 22 bd 82 4a b1 bc 64 bb 8a bd 8d 70 60 bc
       -0.0396517 -0.021641973 -0.06774023 -0.013698709
0000e0 8c 3c cd bd 02 7a 3a 3c 4c 8e 4e 3d af b3 31 bd
       -0.10021314 0.011381628 0.050428674 -0.04338425
0000f0 51 18 8a 3d 8c e2 07 3e b7 cc 99 3d a7 d5 b2 3b
       0.06742919 0.13270015 0.075097494 0.0054575983
000100 ea 03 57 bd 20 b4 0c bd 80 8b f0 bc 13 e1 e9 ba
       -0.052493967 -0.034351468 -0.029363394 -0.0017843567
000110 bf 29 3c bd 26 a2 f6 3b 3b 28 4a bb b0 7c f9 bc
       -0.04593825 0.007526654 -0.0030846733 -0.030454963
000120 24 51 0f bd 58 0d ed 3c d0 ef 23 bc b7 8c 4e bd
       -0.03498949 0.028937027 -0.010005906 -0.050427165
000130 0e 03 10 3d eb 69 eb 3d 75 a5 d2 3c 8b e8 ab bd
       0.035159163 0.114948116 0.025713662 -0.083939634
000140 f7 04 05 bd 0f ce 0d 3c 4f 59 c8 bc bc 89 fb 3c
       -0.032475438 0.008655085 -0.024456648 0.030705325
000150 8c 4e f0 bc fd 81 da ba 40 0d 69 ba 0a 53 d5 bc
       -0.029334329 -0.001667082 -0.0008890219 -0.026040573
000160 09 3f 10 3d 2a 2f a2 3d 2e b5 61 3d 02 80 08 bd
       0.035216365 0.07919152 0.055104427 -0.033325203
000170 1d c2 f5 3c c0 67 99 3c ba 7a 4b bd b1 fc 98 bd
       0.029999787 0.01872623 -0.049677588 -0.07470072
000180 63 63 65 3c de 5f 64 bc 7e a1 9d 3c b4 68 6f 3d
       0.014000746 -0.013938872 0.019242045 0.058449462
000190 fd 18 1a bd 6e 73 54 bd 23 2f 39 3d af 43 2a 3d
       -0.037621487 -0.051867895 0.04521097 0.041568454
0001a0 37 3c 33 3d b6 c7 df 3c c6 99 d0 bc 18 3c 9a 3c
       0.043758597 0.02731691 -0.02546395 0.018827483
0001b0 cf 4d 7d 3d cb 97 04 3d ec f9 6d 3d 47 7d f8 3c
       0.061841782 0.032371324 0.058099672 0.030333174
0001c0 7e 84 27 3c 8f 71 f7 bb f8 18 2f 3c 4a 85 af 3d
       0.01022446 -0.007551379 0.010687105 0.08570345
0001d0 51 25 a7 3c 78 f0 94 3d a0 df e2 3c b1 92 a2 3c
       0.020403536 0.07272428 0.027694523 0.019845339
0001e0 c2 0c aa bb 70 ea b0 3c 75 c1 e1 3c 4d 7f 5d bc
       -0.005189509 0.021596164 0.027558068 -0.01351912
0001f0 da 96 e3 bd b7 bb 4e bd 6d 6d ce 3c 37 b9 0d bd
       -0.11112757 -0.050471988 0.025198663 -0.034600463
000200 2f 76 49 3d 61 32 47 3d d5 bd e5 3c 95 c5 f3 3c
       0.049184974 0.04863203 0.02804462 0.0297573
000210 86 e8 2f 3d 4d a1 fa bc 39 cf 99 bc 52 48 17 3d
       0.04294636 -0.030594492 -0.01877557 0.036934204
000220 dd 7f 23 3b 2b a7 f8 3c ce a5 5f bc 10 8a 5c bb
       0.0024948039 0.03035315 -0.013650371 -0.0033651628
000230 61 81 a5 bc 18 75 f9 bb 39 47 9f 3c 5e dc 58 3d
       -0.020203294 -0.0076128356 0.019443141 0.052944534
000240 84 a2 93 3c 80 e8 bd ba be e5 5d 3d f7 74 f6 bc
       0.01802183 -0.0014488846 0.054174177 -0.03008507
000250 8c 54 34 bc ec 0b f6 bb 3b d9 86 3c 5d e9 0b bb
       -0.011006486 -0.0075087454 0.016461005 -0.0021348812
000260 a8 c2 c5 bc 4c 59 d2 bc b9 1c 00 bc 7c e1 83 bc
       -0.02414067 -0.025677346 -0.007819348 -0.01609873
000270 0b 32 22 ba 42 d1 b3 3c 3e 4e 0f bd 1f 95 40 bc
       -0.00061872666 0.021950368 -0.034986727 -0.011754303
000280 0d a1 f5 bc 68 c2 a8 3c 2d 7d 49 3d e6 68 a5 bc
       -0.029984022 0.020600513 0.049191643 -0.020191621
000290 5c 21 47 bd 98 62 3f 3d 8a 1e d2 bc dd a6 15 3d
       -0.0486158 0.046724886 -0.025649328 0.036536086
0002a0 24 40 81 3d fb d7 8a 3b 4f a6 50 3b 72 b0 c8 bc
       0.06311062 0.0042371727 0.003183741 -0.024498198
0002b0 e0 80 81 3d c3 54 1d bd 87 2c c0 3a 99 6c 0c bd
       0.06323409 -0.038410913 0.0014661708 -0.034283254
0002c0 e8 4d cd 3c d6 4b 9a 3c 11 d9 7a 3d 51 d3 4f bc
       0.025061563 0.01883499 0.061242167 -0.012684659
0002d0 bc ce 17 3d bd 21 81 bc f9 97 29 3d d8 9d 01 bd
       0.03706239 -0.015763158 0.041404698 -0.031644672
0002e0 f8 df c1 3b 75 a1 cd 3c dd c0 28 bd fe b8 84 bd
       0.0059165917 0.025101403 -0.041199554 -0.06480597
0002f0 38 35 9d bc 37 08 95 bc 5a 37 33 bd 68 a8 79 bd
       -0.019190416 -0.018192394 -0.04375396 -0.06095162
000300 a5 2f 9a 3c 20 37 5e 3d bc 3a 03 3c 7d 08 34 3c
       0.018821547 0.05425179 0.008009609 0.010988352
000310 dc ad 3a bb c8 3a ba bc df 91 68 3a bc 08 0d bd
       -0.0028484976 -0.022733107 0.0008871834 -0.034432158
000320 78 5b 1c 3d fb 34 d8 3c e9 77 4d 3d ee 84 f0 bc
       0.03817317 0.02639245 0.050163183 -0.02936026
000330 ca 42 b5 bd a5 91 15 3b a5 e1 a6 3c 7b bc 64 3c
       -0.0885063 0.0022822407 0.020371268 0.013960953
000340 40 96 98 3d d2 3e 07 3c 0a 57 2b 3d 08 9f 8f 3c
       0.07450533 0.008254724 0.041831054 0.017531887
000350 0f c1 0e bd 6d c5 99 bb cf 88 a8 bb 09 f5 b7 bc
       -0.034852084 -0.0046927244 -0.005143262 -0.022455709
000360 f8 38 f8 bc 9b a4 04 3d 67 82 19 3d 19 d5 23 3c
       -0.030300602 0.032383543 0.037477877 0.009999537
000370 ca c8 af 3d cb 64 36 3d b4 d2 1e bd 29 b9 7e bd
       0.08583219 0.044529717 -0.03877516 -0.0621883
000380 3d 47 0f 3d 79 62 2d bc c7 18 cf 3b 20 cf 67 bc
       0.034980047 -0.01058256 0.0063200924 -0.014148504
000390 78 21 50 bd 96 4d ed 3c da d7 08 3d da 57 a1 bc
       -0.05081317 0.02896766 0.033408977 -0.019695211
0003a0 36 31 da bc ef 26 47 3c c0 15 e2 bc d6 d6 4b bb
       -0.026634794 0.012155279 -0.027598262 -0.0031103394
0003b0 a8 ea c8 3d 77 3b 68 3d 5d 54 8a bd cf 52 21 bd
       0.09810382 0.056697335 -0.06754372 -0.039385613
0003c0 ea 0b 15 bd d9 67 36 3d c4 52 e5 bb 38 ed 8e 3d
       -0.036388315 0.04453263 -0.006998392 0.0697884
0003d0 95 c0 79 bd c7 38 1b 3b 9a 0f 29 3d 5b 97 65 bd
       -0.060974676 0.0023684965 0.041274644 -0.056052547
0003e0 37 79 ed bc 0c 9d 8d bc 88 91 3a bc 82 8f 4e bd
       -0.028988464 -0.0172868 -0.011387236 -0.05042983
0003f0 bf d2 e8 bb ac ad 00 3d 12 9c 9c bd 95 54 7c bd
       -0.007105201 0.031415626 -0.076469555 -0.0616041

fc1.bias f4 [50]
000000 91 c0 36 3d 32 b0 cc 3c 18 db 73 bb c3 05 ee bc
       0.04461724 0.02498636 -0.0037209447 -0.029055482
000010 0a 0d da 3b 7c 75 83 bb f7 8e 2f 3d 24 f1 06 3d
       0.0066543864 -0.004011808 0.04286095 0.032944813
000020 9f 62 38 bc 16 3b 3a bc 37 db a3 3b 51 31 00 bd
       -0.011253982 -0.011366626 0.0050004977 -0.03129703
000030 df fb 90 3d ec c9 81 3c 24 a3 65 3d ba 1f 04 bd
       0.070792906 0.015843354 0.056063786 -0.03225682
000040 7d ec 3e bb 76 77 68 3d 93 a1 99 3c 5b ec 9d 3d
       -0.0029132657 0.05675455 0.018753802 0.07711097
000050 d4 63 6a 3d 5a 2a 18 3c 7f a5 20 3d c3 a0 41 3a
       0.05722411 0.009287441 0.03922033 0.0007386321
000060 f5 cf 11 bd da 32 87 bc 3f b5 ee bc c1 4e 57 3d
       -0.035598714 -0.01650374 -0.02913916 0.05256534
000070 02 fb 05 3c 54 5e 4c bd 57 66 05 bd c2 88 4d 3d
       0.008177521 -0.049894646 -0.032568302 0.05017925
000080 9b 04 30 bb 4c 6e c9 bc de 89 54 3d f2 fb 20 3b
       -0.0026858214 -0.024588726 0.051889293 0.0024564234
000090 c8 dd e7 ba 7f 5c 9a 3d 01 01 3e 3d 59 dc 59 bd
       -0.0017689997 0.075371735 0.046387676 -0.053188656
0000a0 b8 e9 e2 3a 08 d1 11 3c 24 3d 7e bd c0 01 ab bc
       0.0017312085 0.008899935 -0.062070027 -0.020874858
0000b0 35 86 84 3d a2 0f 90 3c f5 18 72 3d 6e a2 22 3c
       0.064709105 0.01758558 0.059105832 0.009926422
0000c0 e3 28 e4 bb 9f 23 c6 bb
       -0.006962882 -0.006046727

fc2.weight f4 [10, 50]
000000 7a d8 71 be 8d 30 44 be 7a 59 01 be 11 81 1c be
       -0.23617736 -0.19159146 -0.12631789 -0.1528361
000010 8e 69 82 3c 14 ae bb 3c 39 a6 c6 bd 47 56 05 be
       0.015919473 0.022910155 -0.09699673 -0.13021193
000020 b7 cb f0 3d 72 7c 7c 3d 11 b1 26 3d 89 77 88 bd
       0.117576055 0.061642118 0.040696207 -0.066634245
000030 29 5e 5a 3e 0b 52 82 3e 41 02 fd 3d f2 f9 6f bd
       0.21324982 0.2545322 0.123539455 -0.058587976
000040 bb 77 09 3e f5 86 7c be 64 9a 19 be 5b 14 4d be
       0.1342458 -0.24660857 -0.15000302 -0.20027296
000050 9a 22 2d be 16 b2 41 be 87 68 2d be df 5a 6c be
       -0.1690773 -0.1891559 -0.16934405 -0.2308154
000060 be 2f 3f 3e 3f 39 8c 3d 7e 93 a9 bd 33 bb dc bd
       0.18670556 0.06846856 -0.08280085 -0.10777893
000070 8f 08 12 3e 7b cc 56 3d 94 68 23 be 16 de 14 3e
       0.14261077 0.0524411 -0.15957862 0.14537844
000080 15 7b 00 3e 62 92 13 3c 2d 51 a5 bd d1 b4 4a be
       0.12546952 0.009007068 -0.08072124 -0.19795538
000090 fa f1 0b be f0 1f 31 be 30 d1 ce 3d 1e d7 cc bd
       -0.13666525 -0.1729734 0.10098493 -0.10001968
0000a0 fa d8 ec 3d ef 11 7c 3e 37 81 3b bd 9d eb 9d bd
       0.115648225 0.24616216 -0.045777526 -0.07710955
0000b0 af d0 13 3e 85 34 29 3d 76 0d 3c 3e c3 c9 70 3e
       0.14435075 0.041309852 0.1836451 0.23514466
0000c0 a3 fd 1f be c4 2c 02 3e d7 01 b5 3d f4 5a 18 3e
       -0.15624098 0.12712389 0.088382415 0.14878446
0000d0 60 3e 74 be 4e d5 10 3e 6d c3 87 bd c0 46 34 be
       -0.23851919 0.1414387 -0.066290714 -0.17605114
0000e0 3b 57 02 3e 46 d7 a4 3d 04 62 47 be 0d 62 02 bd
       0.12728588 0.08048873 -0.19470984 -0.03183179
0000f0 7b 83 28 3e c2 d8 5e be 21 c0 e2 3d f1 fd 14 bd
       0.16456406 -0.21762374 0.11071802 -0.03637499
000100 42 59 61 be ee 81 54 3d 58 80 1a be 4d e3 1d 3e
       -0.22006705 0.051881723 -0.15088022 0.1541874
000110 e5 b6 36 3e b5 4e 46 3e cd 8d de 3d be 67 82 be
       0.17843206 0.19365962 0.1086689 -0.25469774
000120 40 9a 8e be 01 76 3a 3e 87 cd 44 3c d8 12 9f 3e
       -0.27852058 0.18209077 0.012011892 0.31069064
000130 be 66 58 3e 24 cc d2 3d fc b9 33 be d0 1e ca bd
       0.21132943 0.10292843 -0.17551416 -0.09869158
000140 ed 6e 2f 3e 61 72 4b bc 02 15 1e be dc 4f 28 be
       0.17132159 -0.012417407 -0.15437701 -0.16436714
000150 bf 97 40 bc 2d 3a 68 3e 41 d8 23 3d f8 79 3b 3e
       -0.011754929 0.22678442 0.040001158 0.18308246
000160 c9 3e 97 3d ab d3 39 be 25 68 1e 3e fe 8c f3 bd
       0.07385022 -0.18147151 0.15469415 -0.118921265
000170 9b c6 06 be 90 9c 45 3e 9f 43 5e be 5f e2 f2 3c
       -0.131617 0.19298005 -0.21705483 0.029648958
000180 95 0e cd 3d f6 b6 d7 bd 4c a4 2f bd a9 52 08 be
       0.10012547 -0.10532944 -0.042881295 -0.13312782
000190 50 d9 31 be d6 61 92 3d 2d dd 05 3e ae 20 57 3d
       -0.17368054 0.07147567 0.13072653 0.0525214
0001a0 cf 76 05 3e 71 b5 17 3d 7f f7 1e 3e 96 66 3b 3e
       0.13033603 0.03703827 0.155241 0.18300852
0001b0 5b 6a ab 3d 2d 4e 40 3e ef f6 05 3d 8b 3b 0a 3e
       0.08369895 0.18779822 0.032706197 0.13499276
0001c0 bb fa 79 3d 46 df 60 bd 29 17 b9 bd 72 ab e1 bd
       0.06103013 -0.05490043 -0.090376206 -0.11019029
0001d0 bb 78 fa bd de 4b 17 3e c3 7b fb bd f7 c3 7b be
       -0.12230059 0.14775035 -0.12279465 -0.24586473
0001e0 1f 17 e3 bd 01 4f 80 bd 7e 3b 14 be db 4e 41 3e
       -0.110883944 -0.06265069 -0.1447582 0.18877737
0001f0 76 dd ec bd c1 59 40 3d e7 b3 0c be 31 61 cd bd
       -0.11565678 0.046960596 -0.13740502 -0.100283034
000200 cc aa b8 3c 8d 3d e8 bd 5c e6 28 3e 5d b8 d5 3d
       0.02254238 -0.11339865 0.16494125 0.10435555
000210 45 a6 f2 bd 59 ca 38 be 8d 4e 0d 3e ea 55 99 bd
       -0.1184812 -0.1804594 0.13799496 -0.0748709
000220 75 48 25 3e 69 68 57 3e c9 7e 25 be 84 58 49 bd
       0.16140921 0.21035923 -0.16161646 -0.04915668
000230 78 c6 01 3c 35 1e 4f 3e c0 84 fd 3d b9 f2 9a bc
       0.007920854 0.20226367 0.12378836 -0.018914567
000240 6a 92 ac bd df d8 db 3d 6b fb d3 3d df da 5e 3e
       -0.08426364 0.10734724 0.103506885 0.2176318
000250 da 13 01 3e 17 8a 19 3d 8a 7a f4 3d 3f f2 0f be
       0.12605229 0.03748521 0.11937435 -0.14057253
000260 b0 df fe 3d e7 ec bb 3d ed 79 1d bd 2d 19 04 3d
       0.12445009 0.09176045 -0.038446356 0.032250572
000270 0a 37 08 be a5 53 3c 3e 11 26 0b be ce 85 9b bd
       -0.13302246 0.18391283 -0.1358874 -0.075938806
000280 27 53 c7 3b 91 f3 b5 bd 2c 84 28 be 90 87 12 bd
       0.0060829106 -0.08884347 -0.1645667 -0.035773814
000290 67 25 a8 bd b7 90 1b 3e d7 d6 d1 ba 36 58 2a 3e
       -0.08210259 0.15191923 -0.0016009462 0.16635212
0002a0 42 2f 0f 3e 89 eb 09 be 37 01 1f be bd 39 03 be
       0.13982871 -0.13468756 -0.15527807 -0.12814994
0002b0 1a c9 e7 3d 75 96 a8 bd be 44 18 3e 9e 5c 15 be
       0.11317654 -0.082318224 0.14869973 -0.14586112
0002c0 2f 01 f1 bd 2e a5 0b 3e 5f 84 8c bd c7 9e 04 3e
       -0.11767804 0.1363723 -0.06861185 0.12951194
0002d0 52 c1 25 3e e0 71 1d 3e f9 6d 23 3e 18 b1 36 bd
       0.16187027 0.15375471 0.1595992 -0.044602484
0002e0 28 71 39 be a9 6f 14 be f4 34 05 3e a3 b1 39 3e
       -0.18109572 -0.1449572 0.13008481 0.1813417
0002f0 b0 02 21 be 52 32 63 3e e0 3b 07 bd 28 96 9b 3a
       -0.15723681 0.22187164 -0.033016086 0.0011870312
000300 e7 e4 bf bd e2 a1 5c bd 68 55 41 3d 6c 53 f3 3d
       -0.093698315 -0.05386532 0.04720059 0.11881146
000310 da a2 ef bc 48 5e 25 bd 8d 48 e2 3d 5e 2d 8b 3d
       -0.029252458 -0.040373117 0.11048994 0.067957625
000320 a7 6f 1d 3e da d7 d5 3d ae 77 0e 3e 2d 4a b7 bd
       0.15374623 0.10441561 0.13912842 -0.08949695
000330 e8 f4 d8 3d ae dc 9f be 4d 61 4c 3e e0 ef a9 3d
       0.10593587 -0.31223053 0.19958992 0.08297706
000340 73 45 bd 3d ae 9d b6 bd f5 a5 82 3e 38 ef 7d 3e
       0.09241762 -0.08916794 0.2551724 0.24798286
000350 40 7c cf bd 5a 3e 4f bd 9c 3a b1 bd a1 10 3f be
       -0.10131121 -0.050596572 -0.08653757 -0.18658687
000360 63 db 6b be 7c c0 35 be 56 d4 62 3e ca 85 b5 3d
       -0.23032908 -0.17749208 0.22151312 0.08863409
000370 cd 72 30 3e 13 5b 1c 3e 0b bc 69 3d 0b c3 99 bd
       0.17231293 0.15269117 0.057064097 -0.075079046
000380 2d 69 b0 bd f0 a9 d2 3b 88 3d 51 3c 54 98 23 3e
       -0.08613811 0.0064289495 0.012771018 0.15976077
000390 a8 5d 6f be 37 ad 4a be f6 61 13 be 58 e1 5e be
       -0.23375571 -0.19792639 -0.14392838 -0.2176565
0003a0 85 c4 90 bd 5c 09 83 3e e2 ce 8a 3e 27 f1 21 3e
       -0.07068733 0.25593078 0.27110964 0.15814649
0003b0 ac f7 f4 bd ea fa a0 bd 5e 6d 8f bd 1e 12 83 3d
       -0.11961302 -0.07860358 -0.07003282 0.0639994
0003c0 8f 19 39 be 51 7c a7 3d ee b0 bb bd 8c e1 0a be
       -0.18076156 0.08178008 -0.09164606 -0.13562602
0003d0 d9 f9 50 3e aa f0 f6 bc 31 64 cf 3c a9 78 3a bd
       0.2040781 -0.030144054 0.02531633 -0.045525227
0003e0 75 c8 02 be 09 ad 7b be 3a 49 dc 3d 03 e0 d3 3d
       -0.12771781 -0.24577726 0.10756154 0.10345461
0003f0 81 25 ac bd 32 d4 24 be b1 ac 05 3e 9b 69 eb bd
       -0.08405591 -0.16096571 0.13054158 -0.11494752

fc2.bias f4 [10]
000000 e1 30 9c 3d 8f b7 14 3e 9e a3 9b bd 9a bf 1f be
       0.076265104 0.14523147 -0.07599567 -0.15600434
000010 a1 61 6d bd cc 31 5b bd 40 4e b2 bc b1 d7 67 bd
       -0.057954434 -0.053514287 -0.021765828 -0.056602184
000020 4b c1 48 3e b6 b8 9c 3d
       0.19604985 0.07652418
